…
[2025-06-15 13:11:46: INFO: pipeline: Converted 'num' column to binary 'target' (0=no disease, 1=disease)]
[2025-06-15 13:11:46: INFO: pipeline: Target distribution:
target
0    164
1    139
Name: count, dtype: int64]
[2025-06-15 13:11:46: INFO: data_processing: Preprocessing data with fit_transform True]
[2025-06-15 13:11:46: INFO: pipeline: Train set: 181 samples]
[2025-06-15 13:11:46: INFO: pipeline: Validation set: 61 samples]
[2025-06-15 13:11:46: INFO: pipeline: Test set: 61 samples]
[2025-06-15 13:11:46: INFO: pipeline: 
=== MODEL CREATION ===]
[2025-06-15 13:11:46: INFO: pipeline: Model architecture:
HeartDiseaseNet(
  (network): Sequential(
    (0): Linear(in_features=13, out_features=128, bias=True)
    (1): BatchNorm1d(128, eps=1e-05, momentum=0.1, affine=True, track_running_stats=True)
    (2): ReLU()
    (3): Dropout(p=0.3, inplace=False)
    (4): Linear(in_features=128, out_features=64, bias=True)
    (5): BatchNorm1d(64, eps=1e-05, momentum=0.1, affine=True, track_running_stats=True)
    (6): ReLU()
    (7): Dropout(p=0.3, inplace=False)
    (8): Linear(in_features=64, out_features=32, bias=True)
    (9): BatchNorm1d(32, eps=1e-05, momentum=0.1, affine=True, track_running_stats=True)
    (10): ReLU()
    (11): Dropout(p=0.3, inplace=False)
    (12): Linear(in_features=32, out_features=1, bias=True)
  )
)]
[2025-06-15 13:11:46: INFO: utils: Total parameters: 12,609]
[2025-06-15 13:11:46: INFO: utils: Trainable parameters: 12,609]
[2025-06-15 13:11:46: INFO: pipeline: 
=== MODEL TRAINING ===]
[2025-06-15 13:13:39: INFO: pipeline: Using device: cpu]
[2025-06-15 13:13:39: INFO: pipeline: Pipeline configuration: {'batch_size': 32, 'learning_rate': 0.001, 'epochs': 100, 'hidden_dims': [128, 64, 32], 'dropout_rate': 0.3, 'weight_decay': 1e-05, 'test_size': 0.2, 'val_size': 0.2}]
…
[2025-06-15 13:31:25: INFO: pipeline: Converted 'num' column to binary 'target' (0=no disease, 1=disease)]
[2025-06-15 13:31:25: INFO: pipeline: Target distribution:
target
0    164
1    139
Name: count, dtype: int64]
[2025-06-15 13:31:25: INFO: data_processing: Preprocessing data with fit_transform True]
[2025-06-15 13:31:25: INFO: pipeline: Train set: 181 samples]
[2025-06-15 13:31:25: INFO: pipeline: Validation set: 61 samples]
[2025-06-15 13:31:25: INFO: pipeline: Test set: 61 samples]
[2025-06-15 13:31:25: INFO: pipeline: 
=== MODEL CREATION ===]
[2025-06-15 13:31:25: INFO: pipeline: Model architecture:
HeartDiseaseNet(
  (network): Sequential(
    (0): Linear(in_features=13, out_features=64, bias=True)
    (1): BatchNorm1d(64, eps=1e-05, momentum=0.1, affine=True, track_running_stats=True)
    (2): ReLU()
    (3): Dropout(p=0.5, inplace=False)
    (4): Linear(in_features=64, out_features=32, bias=True)
    (5): BatchNorm1d(32, eps=1e-05, momentum=0.1, affine=True, track_running_stats=True)
    (6): ReLU()
    (7): Dropout(p=0.5, inplace=False)
    (8): Linear(in_features=32, out_features=1, bias=True)
  )
)]
[2025-06-15 13:31:25: INFO: utils: Total parameters: 3,201]
[2025-06-15 13:31:25: INFO: utils: Trainable parameters: 3,201]
[2025-06-15 13:31:25: INFO: pipeline: 
=== MODEL TRAINING ===]
[2025-06-15 13:31:26: INFO: train: Starting training for 100 epochs...]
[2025-06-15 13:31:26: INFO: train: Epoch 1/100:]
[2025-06-15 13:31:26: INFO: train: Train Loss: 0.8156, Train Acc: 56.3536]
…
[2025-06-15 14:10:30: INFO: pipeline: Using 'num' column for multi-class classification (0=no disease, 1-4=disease severity)]
[2025-06-15 14:10:30: INFO: pipeline: Target distribution:
num
0    164
1     55
2     36
3     35
4     13
Name: count, dtype: int64]
[2025-06-15 14:10:30: INFO: data_processing: Preprocessing data with fit_transform True]
[2025-06-15 14:10:30: INFO: pipeline: Train set: 181 samples]
[2025-06-15 14:10:30: INFO: pipeline: Validation set: 61 samples]
[2025-06-15 14:10:30: INFO: pipeline: Test set: 61 samples]
[2025-06-15 14:10:30: INFO: pipeline: 
=== MODEL CREATION ===]
[2025-06-15 14:10:30: INFO: pipeline: Model architecture:
HeartDiseaseNet(
  (network): Sequential(
    (0): Linear(in_features=13, out_features=64, bias=True)
    (1): BatchNorm1d(64, eps=1e-05, momentum=0.1, affine=True, track_running_stats=True)
    (2): ReLU()
    (3): Dropout(p=0.3, inplace=False)
    (4): Linear(in_features=64, out_features=32, bias=True)
    (5): BatchNorm1d(32, eps=1e-05, momentum=0.1, affine=True, track_running_stats=True)
    (6): ReLU()
    (7): Dropout(p=0.3, inplace=False)
    (8): Linear(in_features=32, out_features=5, bias=True)
  )
)]
[2025-06-15 14:10:30: INFO: utils: Total parameters: 3,333]
[2025-06-15 14:10:30: INFO: utils: Trainable parameters: 3,333]
[2025-06-15 14:10:30: INFO: pipeline: 
=== MODEL TRAINING ===]
[2025-06-15 14:10:31: INFO: train: Starting training for 150 epochs...]
[2025-06-15 14:10:31: INFO: train: Epoch 1/150:]
[2025-06-15 14:10:31: INFO: train: Train Loss: 2.4818, Train Acc: 11.6022]
…
[2025-06-15 14:18:48: INFO: pipeline: Using 'num' column for multi-class classification (0=no disease, 1-4=disease severity)]
[2025-06-15 14:18:48: INFO: pipeline: Target distribution:
num
0    164
1     55
2     36
3     35
4     13
Name: count, dtype: int64]
[2025-06-15 14:18:48: INFO: data_processing: Preprocessing data with fit_transform True]
[2025-06-15 14:18:48: INFO: pipeline: Train set: 181 samples]
[2025-06-15 14:18:48: INFO: pipeline: Validation set: 61 samples]
[2025-06-15 14:18:48: INFO: pipeline: Test set: 61 samples]
[2025-06-15 14:18:48: INFO: pipeline: 
=== MODEL CREATION ===]
[2025-06-15 14:18:48: INFO: pipeline: Model architecture:
HeartDiseaseNet(
  (network): Sequential(
    (0): Linear(in_features=13, out_features=256, bias=True)
    (1): BatchNorm1d(256, eps=1e-05, momentum=0.1, affine=True, track_running_stats=True)
    (2): LeakyReLU(negative_slope=0.1)
    (3): Dropout(p=0.4, inplace=False)
    (4): Linear(in_features=256, out_features=128, bias=True)
    (5): BatchNorm1d(128, eps=1e-05, momentum=0.1, affine=True, track_running_stats=True)
    (6): LeakyReLU(negative_slope=0.1)
    (7): Dropout(p=0.32000000000000006, inplace=False)
    (8): Linear(in_features=128, out_features=64, bias=True)
    (9): BatchNorm1d(64, eps=1e-05, momentum=0.1, affine=True, track_running_stats=True)
    (10): LeakyReLU(negative_slope=0.1)
    (11): Dropout(p=0.25600000000000006, inplace=False)
    (12): Linear(in_features=64, out_features=32, bias=True)
    (13): BatchNorm1d(32, eps=1e-05, momentum=0.1, affine=True, track_running_stats=True)
    (14): LeakyReLU(negative_slope=0.1)
    (15): Dropout(p=0.20480000000000007, inplace=False)
    (16): Linear(in_features=32, out_features=5, bias=True)
  )
)]
[2025-06-15 14:18:48: INFO: utils: Total parameters: 47,941]
[2025-06-15 14:18:48: INFO: utils: Trainable parameters: 47,941]
[2025-06-15 14:18:48: INFO: pipeline: 
=== MODEL TRAINING ===]
[2025-06-15 14:18:49: INFO: train: Starting training for 200 epochs...]
[2025-06-15 14:18:49: INFO: train: Epoch 1/200:]
[2025-06-15 14:18:49: INFO: train: Train Loss: 2.4104, Train Acc: 34.2541]
…
[2025-06-15 14:33:26: INFO: pipeline: Using 'num' column for multi-class classification (0=no disease, 1-4=disease severity)]
[2025-06-15 14:33:26: INFO: pipeline: Target distribution:
num
0    164
1     55
2     36
3     35
4     13
Name: count, dtype: int64]
[2025-06-15 14:33:26: INFO: data_processing: Preprocessing data with fit_transform True]
[2025-06-15 14:33:26: INFO: pipeline: Train set: 181 samples]
[2025-06-15 14:33:26: INFO: pipeline: Validation set: 61 samples]
[2025-06-15 14:33:26: INFO: pipeline: Test set: 61 samples]
[2025-06-15 14:33:26: INFO: pipeline: 
=== MODEL CREATION ===]
[2025-06-15 14:33:26: INFO: pipeline: Model architecture:
HeartDiseaseNet(
  (input_layer): Sequential(
    (0): Linear(in_features=13, out_features=128, bias=True)
    (1): BatchNorm1d(128, eps=1e-05, momentum=0.1, affine=True, track_running_stats=True)
    (2): ReLU(inplace=True)
    (3): Dropout(p=0.2, inplace=False)
  )
  (hidden_layers): ModuleList(
    (0): Sequential(
      (0): Linear(in_features=128, out_features=64, bias=True)
      (1): BatchNorm1d(64, eps=1e-05, momentum=0.1, affine=True, track_running_stats=True)
      (2): ReLU(inplace=True)
      (3): Dropout(p=0.1, inplace=False)
    )
  )
  (output_layer): Sequential(
    (0): Dropout(p=0.05, inplace=False)
    (1): Linear(in_features=64, out_features=5, bias=True)
  )
)]
[2025-06-15 14:33:26: INFO: utils: Total parameters: 10,757]
[2025-06-15 14:33:26: INFO: utils: Trainable parameters: 10,757]
[2025-06-15 14:33:26: INFO: pipeline: 
=== MODEL TRAINING ===]
[2025-06-15 14:33:26: INFO: train: Using class weights: tensor([0.3694, 1.0970, 1.6455, 1.7238, 5.1714])]
[2025-06-15 14:33:26: INFO: train: Using Focal Loss]
[2025-06-15 14:33:27: INFO: train: Starting training for 300 epochs...]
…
[2025-06-15 14:59:01: INFO: pipeline: Test set distribution: {np.int64(3): 5, np.int64(2): 6, np.int64(0): 25, np.int64(4): 2, np.int64(1): 8}]
[2025-06-15 14:59:01: INFO: pipeline: Class 0: Train 54.0%, Val 54.3%, Test 54.3%]
[2025-06-15 14:59:01: INFO: pipeline: Class 1: Train 18.0%, Val 19.6%, Test 17.4%]
[2025-06-15 14:59:01: INFO: pipeline: Class 2: Train 11.8%, Val 10.9%, Test 13.0%]
[2025-06-15 14:59:01: INFO: pipeline: Class 3: Train 11.8%, Val 10.9%, Test 10.9%]
[2025-06-15 14:59:01: INFO: pipeline: Class 4: Train 4.3%, Val 4.3%, Test 4.3%]
[2025-06-15 14:59:01: INFO: pipeline: 
=== MODEL CREATION ===]
[2025-06-15 14:59:01: INFO: pipeline: Model architecture:
HeartDiseaseNet(
  (feature_extractor): Sequential(
    (0): Linear(in_features=13, out_features=128, bias=True)
    (1): BatchNorm1d(128, eps=1e-05, momentum=0.1, affine=True, track_running_stats=True)
    (2): ReLU()
    (3): Dropout(p=0.3, inplace=False)
    (4): Linear(in_features=128, out_features=64, bias=True)
    (5): BatchNorm1d(64, eps=1e-05, momentum=0.1, affine=True, track_running_stats=True)
    (6): ReLU()
    (7): Dropout(p=0.3, inplace=False)
    (8): Linear(in_features=64, out_features=32, bias=True)
    (9): BatchNorm1d(32, eps=1e-05, momentum=0.1, affine=True, track_running_stats=True)
    (10): ReLU()
    (11): Dropout(p=0.3, inplace=False)
  )
  (out): Linear(in_features=32, out_features=5, bias=True)
)]
[2025-06-15 14:59:01: INFO: utils: Total parameters: 12,741]
[2025-06-15 14:59:01: INFO: utils: Trainable parameters: 12,741]
[2025-06-15 14:59:01: INFO: pipeline: 
=== MODEL TRAINING ===]
[2025-06-15 14:59:01: INFO: train: Using simple Cross Entropy Loss]
[2025-06-15 14:59:02: INFO: train: Starting simple training for 300 epochs...]
[2025-06-15 14:59:02: INFO: train: Epoch 1/300:]
…
4     13
Name: count, dtype: int64]
[2025-06-15 15:17:14: INFO: data_processing: Preprocessing data with fit_transform True]
[2025-06-15 15:17:14: INFO: data_processing: Converted to binary classification: [164 139] samples per class]
[2025-06-15 15:17:14: INFO: pipeline: Train set: 211 samples]
[2025-06-15 15:17:14: INFO: pipeline: Validation set: 46 samples]
[2025-06-15 15:17:14: INFO: pipeline: Test set: 46 samples]
[2025-06-15 15:17:14: INFO: pipeline: 
=== MODEL CREATION ===]
[2025-06-15 15:17:14: INFO: pipeline: Model architecture:
HeartDiseaseNet(
  (feature_extractor): Sequential(
    (0): Linear(in_features=13, out_features=64, bias=True)
    (1): BatchNorm1d(64, eps=1e-05, momentum=0.1, affine=True, track_running_stats=True)
    (2): ReLU()
    (3): Dropout(p=0.3, inplace=False)
    (4): Linear(in_features=64, out_features=32, bias=True)
    (5): BatchNorm1d(32, eps=1e-05, momentum=0.1, affine=True, track_running_stats=True)
    (6): ReLU()
    (7): Dropout(p=0.3, inplace=False)
    (8): Linear(in_features=32, out_features=16, bias=True)
    (9): BatchNorm1d(16, eps=1e-05, momentum=0.1, affine=True, track_running_stats=True)
    (10): ReLU()
    (11): Dropout(p=0.15, inplace=False)
  )
  (out): Linear(in_features=16, out_features=1, bias=True)
)]
[2025-06-15 15:17:14: INFO: utils: Total parameters: 3,745]
[2025-06-15 15:17:14: INFO: utils: Trainable parameters: 3,745]
[2025-06-15 15:17:14: INFO: pipeline: 
=== MODEL TRAINING ===]
[2025-06-15 15:17:14: INFO: train: Using BCELoss for binary classification]
[2025-06-15 15:17:15: INFO: train: Starting binary classification training for 300 epochs...]
…
